…
                    "ref_id": "BIBREF19"
                }
            ],
            "ref_spans": [],
            "section": "Analysis of WALDO"
        },
        {
            "text": "For WALDO , CoRa and WAE, we use autoencoders without any convolutional layers for KDD, and convolutional autoencoders for image datasets (Cifar-10, Fashion-MNIST, MNIST). A detailed table to show each layer for each datasets can be found in next page.",
            "cite_spans": [],
            "ref_spans": [],
            "section": "Neural Network architectures"
        },
        {
            "text": "Encoder Linear-1 ([-1, 120, 64) 7,808 LeakyReLU-2 (-1, 120, 64) 0 Linear-3 (-1, 120, 32 ) 2,080 ReLU-4 (-1, 120, 32 ) 0",
            "cite_spans": [],
            "ref_spans": [],
            "section": "Non Linearity Output Shape Parameters"
        },
        {
            "text": "Linear-1 (-1, 120, 64) 2,112 LeakyReLU-2 (-1, 120, 64) 0 Linear-3 (-1, 120, 121) 7,865 Tanh-4 (-1, 120, 121) 0",
            "cite_spans": [],
            "ref_spans": [],
            "section": "Inlier Decoder"
        },
        {
            "text": "Outlier Decoder Linear-1 (-1, 120, 64) 2,112 LeakyReLU-2 (-1, 120, 64) 0 Linear-3 (-1, 120, 121) 7,865 Tanh-4 (-1, 120, 121) 0",
            "cite_spans": [],
            "ref_spans": [],
            "section": "Inlier Decoder"
        },
        {
            "text": "Discriminator Linear-1 (-1, 120, 32) 1,056 LeakyReLU-2 (-1, 120, 32) 0 Dropout-3 (-1, 120, 32) 0 Linear-4 (-1, 120, 1) 33 Sigmoid-5 (-1, 120, 1) 0 ",
            "cite_spans": [],
            "ref_spans": [],
            "section": "Inlier Decoder"
        }
    ],
    "bib_entries": {
        "BIBREF0": {
            "ref_id": "b0",
            "title": "Outlier Analysis",
            "authors": [
                {
                    "first": "C",
                    "middle": [],
                    "last": "Charu",
                    "suffix": ""
…
